mymodel.pt (torch_old, 37112 bytes, 6 tensors)

fc1.weight f4 [128, 4]
00000000: 2077 de3c d04f 9dbd e2cf 99be 88e4 73be
00000010: 88c4 35be 387f b3be 5016 c8bd f094 c2be
00000020: 1b58 16be 670a d83d 7b18 d23e 9082 413e
00000030: 8663 833d 6f72 fa3e 80e5 523e 4aad 8bbd
00000040: a64d c43e 6097 59be 479a fbbe 60dd 98be
00000050: 5cc3 84be 764d e23e 712f 873e 237d 29bf
00000060: 5b1b d93e cbe1 96be c650 3a3d 51e7 f0be
00000070: ce93 fd3e 2c05 933e 10ec 86bd 583b 7e3e
00000080: 326c e93e 14fe 9fbe 40b2 38bd 103e 543d
00000090: 62ba fe3e 54eb e9be 80da 67be 842a 493e
000000a0: f6a0 c13e 28d1 8b3e 6438 30be 68bb 433e
000000b0: 4486 e0be 244d 983e 2e4d aabe 7f45 af3e
000000c0: 62f4 c3bc 7f9d 183d c536 9dbe e3c6 153f
000000d0: 4e0f b9be c415 fb3e e770 1dbe e2a0 8fbd
000000e0: 8de7 7b3b 1776 4d3e 2205 d1be c526 963e
000000f0: 082c b1be 753a 1f3f 3d8a a7be 403d 02bf
00000100: 2277 f1be 19cb 06bf 5f4f a0bd 6d71 fa3d
00000110: b0cd 2dbd 0a72 f83e 68d0 653e ec06 0a3e
00000120: 24de b23e 5c6c 6bbe 667c fbbe 19d1 efbe
00000130: 32c9 b23d 79de ee3e 3c54 b9bc affa 59bf
00000140: faa2 a43e ccbe 4fbe 38f2 ba3d be21 923e
00000150: bdb9 87bd 49d4 ad3d 8205 97be f0c8 0e3e
00000160: 264b aa3e fe82 b1be 9031 b63e 2e92 c33e
00000170: e0e2 1bbe 8b4e 01bf a323 eb3e dae8 403f
00000180: 5836 ca3d c605 8dbe e011 e3bc 0027 a9be
00000190: cc53 213e ecb9 333e 78e5 a03d 641d 9abe
000001a0: 875b b43e e142 86be bf1d fcbe 4a5b 0ebf
000001b0: 6795 973d c5d3 063e 75f0 973d 4d1a d93e
000001c0: 0c8c 2bbe 4cff cd3e 3ce1 eabe 0023 ac3e
000001d0: a284 93be 04c6 1abe 681b d1be 102f 59bd
000001e0: b714 063e 3b81 b13e 0508 a7bd 2aa4 1c3f
000001f0: 18fb cabe 3e5e b1be 4e8e b0be 70a1 17be
00000200: b2e9 8e3e 14fe 2e3e b483 f93e 7e8f 93be
00000210: c848 8c3e f2d3 c5be 4dd3 f3bd ceef b33e
00000220: 76a1 eebe d437 053e b2c9 c2be e4ac aabe
00000230: 1d9b cb3e e27c 933e 0902 85be 1418 1d3f
00000240: 4b20 dabe ed71 653e 1639 3c3e 98d4 38be
00000250: abc0 d2be 2f17 babd 9436 d53e 8d24 7e3e
00000260: f224 ad3e 80f5 3e3c be8f a5be 1697 ce3e
00000270: 5e8e b33e 450b 62bd 30c7 243e d5a1 aabe
00000280: 249d 083e 70fe 5cbd 7031 553d 401d f63d
00000290: 14ae 9abe 0636 d93e c19e 05bf dd5a 3fbf
000002a0: 0002 f93c c281 8cbe 50ec 8b3d 1e15 b23e
000002b0: 6009 6e3e 1221 d9be 8061 86bc f4f7 553e
000002c0: 6787 72be e1de 0c3e a59d d13e 62ed 393f
000002d0: d0bf 52be 4d48 1f3f b933 86bd 1e8c 34bf
000002e0: 6bb2 96be cf17 1ebe 24a2 19be da6e ef3d
000002f0: 1c8e 4a3e 74de 983e 384c 19be e6fb e83e
00000300: e280 db3e b07e 063d 9ae4 96be 4ebf cc3e
00000310: 5081 c13d 0a63 c8be 9176 ff3e ae8e 593f
00000320: 66f1 ddbe 0885 b0bd 2860 d53e cc73 c2be
00000330: def8 d83e 4305 62be d224 383e de20 473f
00000340: 51e3 b9bd a72f a3be d95d 61be 4847 bd3c
00000350: 071e d93e 275b 393f b590 a8be de2b 86bf
00000360: 113c 29be b0d7 bf3d c376 b43e 3797 1cbd
00000370: bc02 b4be 000c 363b 3c60 b7be 2070 96be
00000380: 30ac 07be 309d b03d 847e a23e fcad 6abe
00000390: d025 ebbe a491 a43e ae3b c6be 6c26 c9be
000003a0: c0a3 81bd fc9e 0fbe 24de 7ebe fca5 adbe
000003b0: a8ed f5bd 4042 cc3c 12d4 c93e 20bc 70be
000003c0: ca59 aabe 40bc 8ebc a859 84be 702e 993e
000003d0: b7b2 fc3d 130f e1be efef dd3e d90f 85bb
000003e0: 1513 bf3e 30a3 403e f420 013e 3b97 0f3f
000003f0: 4011 aebe 40f5 743e 40e4 22bd 643c 0bbe
0.027156413 -0.07681239 -0.30041414 -0.23817647 -0.17750752 -0.35057998 -0.09769881 -0.38004255
-0.14682047 0.10548859 0.41034302 0.18897462 0.06415467 0.4891543 0.2059536 -0.06820162
0.3834049 -0.21249151 -0.49141142 -0.29856396 -0.25930297 0.44199723 0.26403382 -0.6620657
0.42403683 -0.2946914 0.045487188 -0.4705148 0.4952683 0.28714883 -0.06587994 0.24827325
0.4559036 -0.31248534 -0.045091867 0.051817 0.49751574 -0.45687354 -0.22641945 0.19645125
0.37818116 0.2730801 -0.17209011 0.19114459 -0.43852437 0.29746354 -0.33262008 0.3423271
-0.023920242 0.037259575 -0.30705848 0.585066 -0.3614449 0.49040043 -0.153751 -0.07013108
0.0038437576 0.20064579 -0.4082423 0.29326454 -0.34603906 0.62198573 -0.32722655 -0.5087471
-0.47161204 -0.5265365 -0.07827639 0.122286655 -0.042432487 0.48524505 0.22442782 0.13479203
0.34935105 -0.22990555 -0.49118346 -0.46839216 0.08729781 0.46654108 -0.022623174 -0.8514814
0.3215559 -0.20287627 0.09128231 0.28541368 -0.06627224 0.08487756 -0.2949639 0.13943839
0.3326046 -0.34670252 0.35584688 0.38197464 -0.15223265 -0.5051047 0.45925626 0.75355303
0.098736465 -0.27543467 -0.027718484 -0.33037567 0.15754622 0.17551392 0.07856268 -0.30100548
0.3522608 -0.262229 -0.49241444 -0.55608046 0.07401543 0.13166721 0.074189104 0.42402878
-0.16752642 0.4023384 -0.45874965 0.33620453 -0.28812128 -0.151146 -0.40841222 -0.053023398
0.1309384 0.34668908 -0.081558265 0.61187994 -0.39644694 -0.34642214 -0.3448357 -0.14807677
0.2791267 0.1708911 0.48733294 -0.28820413 0.27399278 -0.38638264 -0.11905537 0.35143894
-0.4660756 0.13009578 -0.38044506 -0.3333503 0.3976678 0.28806216 -0.25978115 0.61364865
-0.42602763 0.2240674 0.18381152 -0.18049848 -0.4116262 -0.09086453 0.41643202 0.2481863
0.3381725 0.011655211 -0.3233623 0.40349644 0.35069555 -0.05518653 0.16091609 -0.33326593
0.13341194 -0.053953588 0.0520491 0.12017298 -0.30210936 0.4242403 -0.52195364 -0.7474802
0.030396461 -0.27442747 0.068321824 0.34781736 0.23245764 -0.42408043 -0.016403913 0.20895368
-0.23684464 0.13756897 0.40940586 0.7262784 -0.20580983 0.622197 -0.06552834 -0.705263
-0.29432997 -0.1543877 -0.15003258 0.11691065 0.19780773 0.29857218 -0.14970481 0.45504683
0.42871767 0.032835662 -0.29471284 0.39989704 0.094484925 -0.3913806 0.49895146 0.84983337
-0.43348235 -0.08619124 0.41674924 -0.3797897 0.4237737 -0.2207232 0.17982796 0.77784526
-0.0907656 -0.31872293 -0.22008456 0.023105279 0.42405722 0.7240471 -0.32922903 -1.0482137
-0.1652682 0.09367311 0.35246858 -0.038230147 -0.35158336 0.0027778149 -0.35815609 -0.2938242
-0.13249278 0.08623731 0.3173715 -0.22917932 -0.45927286 0.32142365 -0.38717407 -0.39287126
-0.06330061 -0.14025491 -0.24889427 -0.339157 -0.1200822 0.024933934 0.3941961 -0.23509264
-0.3327163 -0.017423749 -0.25849652 0.29918242 0.12338775 -0.43956813 0.43347117 -0.004060727
0.37319246 0.18812251 0.12610227 0.56090134 -0.33997536 0.2392168 -0.039768457 -0.13597256

fc1.bias f4 [128]
00000000: 949b 5ebe f876 1dbe ea75 8c3e aae2 e53d
00000010: 18b8 393e cfe9 f13d d40e cc3d 3ece a5be
00000020: 3839 88be 3ced 7fbe 4a25 e8be 558e 483e
00000030: 7340 013e 83c2 d33d cfed 8f3e da9b 1c3e
00000040: c475 213e c2de a5be 2177 173e 098c f23d
00000050: 1059 7ebe f2e7 5c3d 1832 9dbe 67ad 883e
00000060: 0868 c0be d244 87be 5112 4a3e 267f 953d
00000070: 0ae4 d4be 4e2c e4be 76f5 843e 38df 3abe
00000080: 90c1 d9be aa74 093e 8093 b5be c786 093e
00000090: d22b 7a3d 9fcd c33d 4841 e6be 7e03 bd3d
000000a0: 2aa1 c9be 770a 033e 8e1b a3be b020 bbbe
000000b0: d373 693e 2f2e 233b 9fe4 1d3e 98e4 7cbe
000000c0: 7e3d b1be 5a66 853e 48d1 36be 878d 343e
000000d0: 3142 883e 7d06 6f3e e084 cc3d 500d b9be
000000e0: 4c5d 51be 3007 aabe 34c1 00be ec18 efbe
000000f0: acf7 12be fccd 19bc ca73 a93d d8d4 e2be
00000100: 0ec2 ecbe 3414 903e bba2 003e 2af2 2a3e
00000110: 7e06 173e 6413 10be 0d64 e43d ce35 b0be
00000120: 133a 8a3e a84b 313e ea1f 1a3e 38d5 353e
00000130: 0b4f 803e 0f7c 2d3e 9907 163e aa84 cdbe
00000140: 8c93 363e dac9 5a3e c208 d1be 74ad 123d
00000150: c4b5 7bbe 80aa acbe 36c2 c23d d8c6 d2be
00000160: 6732 743e a97a 5e3e 8ac8 5b3e 0ce7 4fbe
00000170: fb51 353e 97cf 483e e01d 48bd cafa 9ebe
00000180: a06d e4be 849a 6e3e 9e86 eb3d a920 2ebd
00000190: e81d 16be 9c6f 41be 8ab4 f13d c003 e5bc
000001a0: f8b4 e6be cd5a 493e a013 79be 3f31 d73d
000001b0: 94f2 0cbb 1c05 47be 209f fabe 7464 17be
000001c0: e2ac c03d a69a 40bd d89b 34be 1df9 02bd
000001d0: 4ada 793e a6aa 95be cb8b cf3d 4b0c 4c3e
000001e0: f51f 313e 493c 4f3e c096 1f3e 0410 073e
000001f0: 0f05 7c3e 385a abbe 8d11 2d3e e464 573e
-0.21739036 -0.15377414 0.2743371 0.11224873 0.18136632 0.118121736 0.09963766 -0.32383913
-0.26606154 -0.24992841 -0.4534095 0.19585545 0.12622242 0.103398345 0.2811112 0.15293828
0.1576758 -0.32396513 0.14791538 0.11843116 -0.24838662 0.053932138 -0.3070228 0.26694795
-0.3757937 -0.26419693 0.1973355 0.07299642 -0.4158023 -0.44565052 0.25968522 -0.18249214
-0.4253049 0.1342341 -0.35464096 0.1343032 0.061076947 0.095607035 -0.4497168 0.09229182
-0.3938077 0.12796961 -0.3185696 -0.36548376 0.2279809 0.0024899354 0.15419243 -0.24696577
-0.34617227 0.2605465 -0.17853272 0.17632113 0.26613 0.23342319 0.099862814 -0.3614297
-0.20445746 -0.3320861 -0.12573701 -0.466987 -0.14352292 -0.009387489 0.08274038 -0.44303012
-0.46241802 0.28140414 0.12562077 0.16693941 0.1474857 -0.14069897 0.11151896 -0.3441605
0.26997432 0.17314017 0.15051237 0.17757118 0.25060305 0.16941856 0.14651336 -0.40140277
0.17829722 0.21366063 -0.40826994 0.03580995 -0.24581057 -0.3372383 0.09509699 -0.4116733
0.23847352 0.21726479 0.21463218 -0.20302981 0.17707054 0.19610439 -0.048856616 -0.31050712
-0.44614887 0.2330113 0.115002856 -0.042511616 -0.14659846 -0.18890232 0.11802013 -0.02795589
-0.45059943 0.19663544 -0.24323893 0.1050744 -0.0021506893 -0.19435543 -0.48949528 -0.14784414
0.09407975 -0.047022484 -0.17637575 -0.031975854 0.24399677 -0.29231757 0.10134085 0.19926564
0.17297347 0.2023784 0.1558485 0.13189703 0.24611305 -0.3346727 0.16901226 0.2103458

fc2.weight f4 [64, 128]
00000000: 28e0 28bd 9096 fb3c 6ab5 7a3d e600 683d
00000010: 1035 79bc 70b1 1b3c 19b7 93bd e93a 943d
00000020: 6e78 2d3d 90f0 60bc d06f 44bc 08cd 3cbc
00000030: 7aad 723d 9e60 6a3d bd60 9d3d 6ab4 ddbc
00000040: b298 5f3d c083 e93c 27fe 8f3d b553 5abd
00000050: 8236 5f3d aea2 5fbd 5a26 443d f0ee a0bc
00000060: 80a9 e53c e0a6 00bb 8799 b2bd 4872 3d3c
00000070: fd16 9d3d 0348 aabd 8d45 873d 6916 45bd
00000080: f4a6 bbbc cb54 4dbd be33 653d 2365 5fbd
00000090: ecb7 da3c 0e09 b3bd e0a8 0abb 38fb aebd
000000a0: 5b18 99bd d860 8dbc 2c70 d53c 9ab9 b0bd
000000b0: 467e 603d 1ed5 ddbc 80ef 3bbc d8bc 2d3c
000000c0: fa2f 21bd 4a61 acbd 8baa 9f3d 6650 513d
000000d0: 0897 bf3c 707c 41bc 95a1 ad3d ebb2 863d
000000e0: cfa8 85bd 4219 82bd 70b1 3cbc 38eb ecbc
000000f0: f848 2e3c 3faa 8c3d 28ba cc3c 787b 0dbd
00000100: 48a3 a3bc 5fea 3ebd 3596 43bd b974 ab3d
00000110: 8a29 743d c2d3 86bd de1f 0a3d 9d07 78bd
00000120: 6abe 84bd 3729 97bd 1b96 9c3d 3176 b43d
00000130: 10ab 10bc 5777 9b3d 3bff a93d 018f 54bd
00000140: bc2f 81bc 224d 683d 6e47 283d a8ff 8abd
00000150: 5ac5 3c3d ee70 febc 1e61 223d 5e28 66bd
00000160: f26c 83bd 4cbb cb3c c2e6 e0bc 65db aebd
00000170: 80e6 c73a fcc4 87bd 39fe aabd 0029 753b
00000180: 964c 373d 839a 9f3d 267d 9cbd 80f7 993c
00000190: 76b9 5c3d 828b 5c3d 4072 b7bc 1e64 193d
000001a0: e87d 073d 9a28 35bd 8a21 acbd e025 f8bb
000001b0: 90f9 5fbc 3c37 bf3c 7ee3 063d 56c0 793d
000001c0: 1879 a8bd 1fad 76bd 086b 763c 608b aabd
000001d0: c62c 9abd f285 223d c22a 7b3d c46f f13c
000001e0: 728e 2dbd dc68 0c3d 16a0 203d 48fe b2bc
000001f0: 26a4 72bd dcef bdbc bc16 babc 01ec 64bd
00000200: 62b9 5c3d 201a 6abd e468 84bd da42 93bc
00000210: 4743 76bd 571f 3abd df7d 783d 2e3d 403d
00000220: 08cb abbd 5e47 d4bc 3210 96bd 5314 fc3c
00000230: 0149 933d a51e bfbc 3d74 adbc 063b 9bbd
00000240: 0416 b83c 74d5 a4bd 2ac5 993d de7e 703d
00000250: b51f a33d a9a9 093d c34c 25bd 3a0c 53bd
00000260: 1f53 8d3d 2e0a 1e3d 6cca a43d 9e09 f4bc
00000270: d263 773d 50d7 873c cd2d 83bc 26a5 093d
00000280: 5954 aabd 7d74 8cbd 27cf 8b3d ea67 45bd
00000290: fba6 a0bd 092e de3c ab92 af3d d8eb 38bd
000002a0: 00d9 353a 0b0c 9cbd 8889 f0bc 2b80 943d
000002b0: c861 87bd 00fd 65bd 0589 1ebd 89d3 a33d
000002c0: f7dc 2ebd fe9a afbd a0d5 a23b 72cb 3cbd
000002d0: d337 113d 0e7c e5bc cc8a 96bd 9fe8 893d
000002e0: 6ab4 56bd 683a 2a3c dc0a f63c 1eec 37bd
000002f0: d823 b2bd 86f2 80bd 58e1 3a3d 4a9c 07bd
00000300: bd19 983d c825 adbd f6d3 ba3b abf7 4fbc
00000310: 205f babb bee5 81bd 2042 a5bb 3a21 67bd
00000320: 2187 ffbc 6342 8d3c 0392 66bd a14e 21bd
00000330: df37 963c a9b6 a3bd cbda 793b 008d bb39
00000340: 8e60 563d 0398 0b3d 89ff ad3d 20a9 70bc
00000350: 7a0d 29bd 929c 083d 08f8 8abc 25a9 883d
00000360: 37ce f6bc 95a0 b1bd 5c92 853d ea14 793d
00000370: 5385 12bb 7d00 9c3d c69c 613d 62ac 4a3d
00000380: aa1a 78bd 35ff 273d e7f9 70bc db43 aabd
00000390: 30ed b4bc d738 75bd 6682 95bd edbb ae3d
000003a0: 4620 543d dc3b 433b 9018 3fbc 38ed 7c3d
000003b0: 905e b5bc 4811 7cbc 2b97 b13d 1d06 8d3d
000003c0: d18f c23c 906a a5bd 00de b8ba 8322 3abd
000003d0: 10f9 b23b 975a 32bd c91b 473c 6c89 593d
000003e0: 30fc e6bc 3d9a a63d 94bd 103d f4ad 87bd
000003f0: 9d47 953d 10f4 ba3c b60a 953d f404 debb
-0.041229397 0.030711442 0.061208166 0.05664148 -0.015210405 0.009502754 -0.072126575 0.07237799
0.04235118 -0.01372923 -0.011989549 -0.011523493 0.05924747 0.057221048 0.07684467 -0.027063567
0.05458898 0.028505206 0.070308976 -0.053302485 0.054495342 -0.054598503 0.047888137 -0.019645184
0.028034925 -0.0019630715 -0.08720689 0.011562891 0.076704 -0.083145164 0.06605063 -0.048117075
-0.022906758 -0.050129693 0.05595755 -0.05453981 0.026699029 -0.087419614 -0.0021157786 -0.0854401
-0.074753486 -0.017258093 0.026054464 -0.08629151 0.054807924 -0.027079161 -0.0114706755 0.010604106
-0.039352395 -0.08416994 0.077962 0.051102065 0.023387447 -0.011809453 0.08478085 0.06577095
-0.06526338 -0.06352474 -0.011516914 -0.028920755 0.010637514 0.06868409 0.02499111 -0.034541577
-0.01997532 -0.046610232 -0.04775067 0.083718725 0.059609927 -0.06583358 0.033721797 -0.060554136
-0.06481631 -0.07380908 0.07645818 0.08811606 -0.008829847 0.07591122 0.083006345 -0.05189419
-0.015769832 0.056714185 0.041083746 -0.06787044 0.046086647 -0.031059708 0.0396434 -0.05619084
-0.06417264 0.024869584 -0.027453784 -0.0853794 0.001525119 -0.06629369 -0.083492704 0.003740847
0.044750772 0.07793143 -0.07641058 0.018794775 0.053887807 0.053843983 -0.022393346 0.037448995
0.033079058 -0.044228174 -0.084048346 -0.0075728744 -0.01367034 0.023341767 0.032931797 0.06097444
-0.08226222 -0.060223695 0.015040167 -0.08327365 -0.07528071 0.03967852 0.061320074 0.02947224
-0.042372175 0.03427969 0.03921517 -0.021849766 -0.059238575 -0.023185663 -0.022715919 -0.055889133
0.053887732 -0.05715382 -0.06465319 -0.017976213 -0.060122754 -0.045440044 0.060666915 0.046933345
-0.083883345 -0.025912937 -0.07327308 0.03077141 0.07191659 -0.023330042 -0.02117359 -0.07579617
0.022471435 -0.080485255 0.07508309 0.05871474 0.07965032 0.033609066 -0.04035641 -0.051525332
0.0690062 0.038583927 0.080464214 -0.029789742 0.06039793 0.016582161 -0.01601305 0.033604763
-0.08316869 -0.06858156 0.068266205 -0.048194803 -0.07844349 0.02712156 0.085728966 -0.045146793
0.00069369376 -0.076194845 -0.029362455 0.072510086 -0.06610447 -0.056149483 -0.03870489 0.079993315
-0.042691197 -0.08574484 0.0049693137 -0.046092458 0.03545363 -0.028013255 -0.07350692 0.06733822
-0.05241815 0.010389902 0.030034475 -0.044902913 -0.08698243 -0.06296258 0.04562506 -0.033108033
0.07426784 -0.08454472 0.0057015372 -0.012693326 -0.0056876093 -0.06342648 -0.005043283 -0.05642817
-0.031192364 0.01724357 -0.05629159 -0.039381627 0.018337188 -0.07993824 0.0038124796 0.00035772473
0.052338175 0.034080517 0.08496005 -0.01468876 -0.041272618 0.033352442 -0.016963974 0.06672887
-0.030127628 -0.08673207 0.065220565 0.06081096 -0.00223573 0.07617281 0.05508115 0.049480803
-0.060572304 0.04101487 -0.014708019 -0.08313724 -0.022085756 -0.05986866 -0.07300262 0.08531938
0.05178859 0.0029790318 -0.011663571 0.061749667 -0.022139817 -0.01538498 0.08671411 0.06885932
0.023750218 -0.08076966 -0.0014104247 -0.04544307 0.0054618195 -0.043543424 0.012152621 0.05310957
-0.028196424 0.08134887 0.035337046 -0.06624976 0.0728905 0.022821456 0.072774336 -0.006775493

fc2.bias f4 [64]
00000000: 5807 92bc 3973 a53d 394d 73bd 171c 26bd
00000010: 86bb d63c 257b 79bc df80 86bc 6618 b43c
00000020: 7d83 443d 5478 e63d fed7 e7bc 7303 903c
00000030: 9dcf 91bd e42f 23bd 2344 c73d f1bd 3b3d
00000040: 2c5b 603d b0a4 703c d026 a1bd 6044 96bd
00000050: 4efd e5bb cc60 8e3b c212 a9bc 3afa 063d
00000060: 86d0 843d b323 473d eb5a 643c 0b51 7abd
00000070: 6927 0d3d 0468 eabc 44ed 533d baff df3b
00000080: 75f0 8abd b056 273e f50e c83d 3488 93bd
00000090: 16a6 54bd fdff ad3c 3c21 443d 248c f13d
000000a0: 5691 1e3d 9758 2ebd e502 78bd 311c 0c3b
000000b0: ca12 833d d317 d0bc 549e adbc 8c8a 733c
000000c0: c169 f23c b691 ea3c b90e 0dbb 4a0c 80bc
000000d0: 879a 313d 7a25 9c3d fc46 a93c c97d b23c
000000e0: b06d bebb 8044 11bd d680 b6bd cf35 a6bd
000000f0: a1b3 9a3d e56f 213d 2b69 ebbc d435 fc3b
-0.017825767 0.080786176 -0.059399817 -0.040554132 0.026212465 -0.015227114 -0.016418872 0.02198429
0.04797696 0.112534195 -0.028301235 0.01757977 -0.07119677 -0.039840594 0.09729793 0.04583544
0.05477445 0.014687702 -0.07868731 -0.0733726 -0.0070187217 0.004345035 -0.020638827 0.03295348
0.06485085 0.04861803 0.013937692 -0.061112445 0.034461413 -0.028614052 0.051739946 0.006835905
-0.06784145 0.16341662 0.09768478 -0.07203713 -0.051916204 0.021240229 0.047883257 0.11794308
0.038712822 -0.042564955 -0.060549635 0.0021379108 0.06400068 -0.025401985 -0.02119366 0.014864575
0.029591443 0.028633934 -0.0021523668 -0.01563086 0.04336026 0.076243356 0.02066373 0.021788495
-0.0058114156 -0.035465717 -0.08911292 -0.08115732 0.07553793 0.03941335 -0.028736671 0.0076968465

fc3.weight f4 [2, 64]
00000000: 7cde ab3d f8ac d43b 3a2d e2bd f66c 01bb
00000010: 511a 9d3d 7340 c53d c5bf 15be a427 c93d
00000020: 13f0 e23e 2933 003e 730b b33d 9fe8 5dbd
00000030: 7abc b3bd 1808 07bd dc73 cfbe ab02 b6bd
00000040: 6559 7a3c 746f dc3d f069 213d 8acb c53d
00000050: eb31 113d dace d63d 0e43 bcbd 7726 8fbc
00000060: 674f 3c3d c0a3 ce3d ad0d 0ebd dc1e 603d
00000070: b0ed c83d f96a e93c 4b91 5ebe c2e8 9b3d
00000080: a1db d4bd 7356 4a3e d645 1fbe 50dd 54bc
00000090: 74c0 d93d 6242 40be 5b25 523e c208 a4be
000000a0: 4c84 933d 0051 293d f319 1a3d 3daa a83e
000000b0: 869a 423e fd5e 16be 053e b13e 9fa0 a93d
000000c0: 3309 6a3c d735 04be e161 dd3e 1712 94be
000000d0: e0ef e43d 3251 653e 5e8c ffbd 2045 d73d
000000e0: a821 29bd 38d2 1d3d 5b97 023f 3e3d e5bd
000000f0: 10d4 d4bd b556 e53d 013e 683c da3e bc3b
00000100: 80c0 cc3c ec07 f1bc 5c85 a7bd d0a6 debd
00000110: f9bf a13d af65 f2bd b256 163d 1411 e23d
00000120: bc87 cebe bcc9 31be 816e de3c 2b8d 913d
00000130: 4831 6dbd f89b e93d dd12 993e 7125 353c
00000140: 4567 e53d 0058 e73c f0b7 f13c 084e 3f3d
00000150: 2bd3 e33d efa0 a83c 3551 d23d a029 9ebd
00000160: db95 47bd 9bd8 2ebd e59b 063d fa20 8dbd
00000170: 1ca8 4dbd 6a0f 753d 61cf 2b3e bceb a73c
00000180: b1b1 683d 1471 4bbe a46c 663e 00b3 783c
00000190: b422 4c3d 8fc5 8b3e 8092 b3bd 80d2 b53e
000001a0: b05a 403c f2ac 8b3d 16b5 bd3d e135 59be
000001b0: 02a4 c9be d4eb 043d 10cd 26be 5ff2 a8bd
000001c0: eae8 383d e323 553e bc56 edbe a7f1 ba3e
000001d0: e702 0d3d 3100 3bbd 1855 373c abb6 a6be
000001e0: 7a67 883d 1064 dc3c 8362 f1be 7e9f b13d
000001f0: 586e 293d 694d f4bd 1c42 5f3d d8fa b83d
0.08392045 0.006490346 -0.110437825 -0.0019748784 0.07671035 0.09631433 -0.14623936 0.09822014
0.44323787 0.12519516 0.08742418 -0.054176923 -0.087761834 -0.032966703 -0.4051808 -0.088872276
0.015280102 0.107634455 0.03940767 0.096579626 0.035447996 0.104886726 -0.09192477 -0.017474396
0.04597416 0.100898266 -0.03468101 0.05471693 0.0981096 0.028493391 -0.21735112 0.076127544
-0.103934534 0.1975954 -0.15553984 -0.012992218 0.10632411 -0.18775323 0.20522062 -0.32037932
0.07202968 0.041337013 0.037622403 0.32942382 0.19004259 -0.14684673 0.3461763 0.08282589
0.01428442 -0.12911163 0.43238738 -0.2892005 0.11178565 0.22394255 -0.12477945 0.105112314
-0.041291863 0.03853056 0.510122 -0.11193322 -0.1039201 0.11198179 0.014174939 0.005744797
0.024994135 -0.029422723 -0.08179733 -0.10871661 0.07897944 -0.11835801 0.036703773 0.11038414
-0.40337932 -0.17362112 0.027152302 0.07107004 -0.057908326 0.11406702 0.29897204 0.01105629
0.11201338 0.028240204 0.029506654 0.046705276 0.111242615 0.020584552 0.10269395 -0.07722783
-0.048726898 -0.04268704 0.032863516 -0.068910554 -0.05020915 0.059829153 0.16778328 0.02049815
0.056810085 -0.19867355 0.2250238 0.015179396 0.049837783 0.27299163 -0.08768177 0.3551216
0.011740372 0.06820096 0.09263055 -0.2121196 -0.3938294 0.032451466 -0.16289163 -0.082493536
0.045144 0.20814471 -0.46355236 0.3651249 0.034426596 -0.04565448 0.0111897215 -0.3256124
0.066603616 0.026903182 -0.4714547 0.08672999 0.041364998 -0.11928827 0.054506406 0.0903222

fc3.bias f4 [2]
00000000: db5c fc3e 7784 b9be
0.49289593 -0.36233875
